{"keras_version": "1.1.1", "config": {"input_layers": [["input_1", 0, 0]], "name": "model_2", "layers": [{"config": {"sparse": false, "name": "input_1", "input_dtype": "float32", "batch_input_shape": [null, 256, 256, 3]}, "name": "input_1", "class_name": "InputLayer", "inbound_nodes": []}, {"config": {"dim_ordering": "tf", "nb_row": 3, "name": "convolution2d_1", "W_constraint": null, "init": "glorot_uniform", "subsample": [2, 2], "b_regularizer": null, "nb_filter": 32, "border_mode": "valid", "b_constraint": null, "activation": "relu", "activity_regularizer": null, "W_regularizer": null, "bias": true, "trainable": false, "nb_col": 3}, "name": "convolution2d_1", "class_name": "Convolution2D", "inbound_nodes": [[["input_1", 0, 0]]]}, {"config": {"momentum": 0.99, "beta_regularizer": null, "epsilon": 1e-05, "name": "batchnormalization_1", "mode": 0, "trainable": false, "gamma_regularizer": null, "axis": 3}, "name": "batchnormalization_1", "class_name": "BatchNormalization", "inbound_nodes": [[["convolution2d_1", 0, 0]]]}, {"config": {"dim_ordering": "tf", "nb_row": 3, "name": "convolution2d_2", "W_constraint": null, "init": "glorot_uniform", "subsample": [1, 1], "b_regularizer": null, "nb_filter": 32, "border_mode": "valid", "b_constraint": null, "activation": "relu", "activity_regularizer": null, "W_regularizer": null, "bias": true, "trainable": false, "nb_col": 3}, "name": "convolution2d_2", "class_name": "Convolution2D", "inbound_nodes": [[["batchnormalization_1", 0, 0]]]}, {"config": {"momentum": 0.99, "beta_regularizer": null, "epsilon": 1e-05, "name": "batchnormalization_2", "mode": 0, "trainable": false, "gamma_regularizer": null, "axis": 3}, "name": "batchnormalization_2", "class_name": "BatchNormalization", "inbound_nodes": [[["convolution2d_2", 0, 0]]]}, {"config": {"dim_ordering": "tf", "nb_row": 3, "name": "convolution2d_3", "W_constraint": null, "init": "glorot_uniform", "subsample": [1, 1], "b_regularizer": null, "nb_filter": 64, "border_mode": "same", "b_constraint": null, "activation": "relu", "activity_regularizer": null, "W_regularizer": null, "bias": true, "trainable": false, "nb_col": 3}, "name": "convolution2d_3", "class_name": "Convolution2D", "inbound_nodes": [[["batchnormalization_2", 0, 0]]]}, {"config": {"momentum": 0.99, "beta_regularizer": null, "epsilon": 1e-05, "name": "batchnormalization_3", "mode": 0, "trainable": false, "gamma_regularizer": null, "axis": 3}, "name": "batchnormalization_3", "class_name": "BatchNormalization", "inbound_nodes": [[["convolution2d_3", 0, 0]]]}, {"config": {"pool_size": [3, 3], "border_mode": "valid", "dim_ordering": "tf", "trainable": false, "name": "maxpooling2d_1", "strides": [2, 2]}, "name": "maxpooling2d_1", "class_name": "MaxPooling2D", "inbound_nodes": [[["batchnormalization_3", 0, 0]]]}, {"config": {"dim_ordering": "tf", "nb_row": 1, "name": "convolution2d_4", "W_constraint": null, "init": "glorot_uniform", "subsample": [1, 1], "b_regularizer": null, "nb_filter": 80, "border_mode": "valid", "b_constraint": null, "activation": "relu", "activity_regularizer": null, "W_regularizer": null, "bias": true, "trainable": false, "nb_col": 1}, "name": "convolution2d_4", "class_name": "Convolution2D", "inbound_nodes": [[["maxpooling2d_1", 0, 0]]]}, {"config": {"momentum": 0.99, "beta_regularizer": null, "epsilon": 1e-05, "name": "batchnormalization_4", "mode": 0, "trainable": false, "gamma_regularizer": null, "axis": 3}, "name": "batchnormalization_4", "class_name": "BatchNormalization", "inbound_nodes": [[["convolution2d_4", 0, 0]]]}, {"config": {"dim_ordering": "tf", "nb_row": 3, "name": "convolution2d_5", "W_constraint": null, "init": "glorot_uniform", "subsample": [1, 1], "b_regularizer": null, "nb_filter": 192, "border_mode": "valid", "b_constraint": null, "activation": "relu", "activity_regularizer": null, "W_regularizer": null, "bias": true, "trainable": false, "nb_col": 3}, "name": "convolution2d_5", "class_name": "Convolution2D", "inbound_nodes": [[["batchnormalization_4", 0, 0]]]}, {"config": {"momentum": 0.99, "beta_regularizer": null, "epsilon": 1e-05, "name": "batchnormalization_5", "mode": 0, "trainable": false, "gamma_regularizer": null, "axis": 3}, "name": "batchnormalization_5", "class_name": "BatchNormalization", "inbound_nodes": [[["convolution2d_5", 0, 0]]]}, {"config": {"pool_size": [3, 3], "border_mode": "valid", "dim_ordering": "tf", "trainable": false, "name": "maxpooling2d_2", "strides": [2, 2]}, "name": "maxpooling2d_2", "class_name": "MaxPooling2D", "inbound_nodes": [[["batchnormalization_5", 0, 0]]]}, {"config": {"dim_ordering": "tf", "nb_row": 1, "name": "convolution2d_9", "W_constraint": null, "init": "glorot_uniform", "subsample": [1, 1], "b_regularizer": null, "nb_filter": 64, "border_mode": "same", "b_constraint": null, "activation": "relu", "activity_regularizer": null, "W_regularizer": null, "bias": true, "trainable": false, "nb_col": 1}, "name": "convolution2d_9", "class_name": "Convolution2D", "inbound_nodes": [[["maxpooling2d_2", 0, 0]]]}, {"config": {"momentum": 0.99, "beta_regularizer": null, "epsilon": 1e-05, "name": "batchnormalization_9", "mode": 0, "trainable": false, "gamma_regularizer": null, "axis": 3}, "name": "batchnormalization_9", "class_name": "BatchNormalization", "inbound_nodes": [[["convolution2d_9", 0, 0]]]}, {"config": {"dim_ordering": "tf", "nb_row": 1, "name": "convolution2d_7", "W_constraint": null, "init": "glorot_uniform", "subsample": [1, 1], "b_regularizer": null, "nb_filter": 48, "border_mode": "same", "b_constraint": null, "activation": "relu", "activity_regularizer": null, "W_regularizer": null, "bias": true, "trainable": false, "nb_col": 1}, "name": "convolution2d_7", "class_name": "Convolution2D", "inbound_nodes": [[["maxpooling2d_2", 0, 0]]]}, {"config": {"dim_ordering": "tf", "nb_row": 3, "name": "convolution2d_10", "W_constraint": null, "init": "glorot_uniform", "subsample": [1, 1], "b_regularizer": null, "nb_filter": 96, "border_mode": "same", "b_constraint": null, "activation": "relu", "activity_regularizer": null, "W_regularizer": null, "bias": true, "trainable": false, "nb_col": 3}, "name": "convolution2d_10", "class_name": "Convolution2D", "inbound_nodes": [[["batchnormalization_9", 0, 0]]]}, {"config": {"momentum": 0.99, "beta_regularizer": null, "epsilon": 1e-05, "name": "batchnormalization_7", "mode": 0, "trainable": false, "gamma_regularizer": null, "axis": 3}, "name": "batchnormalization_7", "class_name": "BatchNormalization", "inbound_nodes": [[["convolution2d_7", 0, 0]]]}, {"config": {"momentum": 0.99, "beta_regularizer": null, "epsilon": 1e-05, "name": "batchnormalization_10", "mode": 0, "trainable": false, "gamma_regularizer": null, "axis": 3}, "name": "batchnormalization_10", "class_name": "BatchNormalization", "inbound_nodes": [[["convolution2d_10", 0, 0]]]}, {"config": {"pool_size": [3, 3], "border_mode": "same", "dim_ordering": "tf", "trainable": false, "name": "averagepooling2d_1", "strides": [1, 1]}, "name": "averagepooling2d_1", "class_name": "AveragePooling2D", "inbound_nodes": [[["maxpooling2d_2", 0, 0]]]}, {"config": {"dim_ordering": "tf", "nb_row": 1, "name": "convolution2d_6", "W_constraint": null, "init": "glorot_uniform", "subsample": [1, 1], "b_regularizer": null, "nb_filter": 64, "border_mode": "same", "b_constraint": null, "activation": "relu", "activity_regularizer": null, "W_regularizer": null, "bias": true, "trainable": false, "nb_col": 1}, "name": "convolution2d_6", "class_name": "Convolution2D", "inbound_nodes": [[["maxpooling2d_2", 0, 0]]]}, {"config": {"dim_ordering": "tf", "nb_row": 5, "name": "convolution2d_8", "W_constraint": null, "init": "glorot_uniform", "subsample": [1, 1], "b_regularizer": null, "nb_filter": 64, "border_mode": "same", "b_constraint": null, "activation": "relu", "activity_regularizer": null, "W_regularizer": null, "bias": true, "trainable": false, "nb_col": 5}, "name": "convolution2d_8", "class_name": "Convolution2D", "inbound_nodes": [[["batchnormalization_7", 0, 0]]]}, {"config": {"dim_ordering": "tf", "nb_row": 3, "name": "convolution2d_11", "W_constraint": null, "init": "glorot_uniform", "subsample": [1, 1], "b_regularizer": null, "nb_filter": 96, "border_mode": "same", "b_constraint": null, "activation": "relu", "activity_regularizer": null, "W_regularizer": null, "bias": true, "trainable": false, "nb_col": 3}, "name": "convolution2d_11", "class_name": "Convolution2D", "inbound_nodes": [[["batchnormalization_10", 0, 0]]]}, {"config": {"dim_ordering": "tf", "nb_row": 1, "name": "convolution2d_12", "W_constraint": null, "init": "glorot_uniform", "subsample": [1, 1], "b_regularizer": null, "nb_filter": 32, "border_mode": "same", "b_constraint": null, "activation": "relu", "activity_regularizer": null, "W_regularizer": null, "bias": true, "trainable": false, "nb_col": 1}, "name": "convolution2d_12", "class_name": "Convolution2D", "inbound_nodes": [[["averagepooling2d_1", 0, 0]]]}, {"config": {"momentum": 0.99, "beta_regularizer": null, "epsilon": 1e-05, "name": "batchnormalization_6", "mode": 0, "trainable": false, "gamma_regularizer": null, "axis": 3}, "name": "batchnormalization_6", "class_name": "BatchNormalization", "inbound_nodes": [[["convolution2d_6", 0, 0]]]}, {"config": {"momentum": 0.99, "beta_regularizer": null, "epsilon": 1e-05, "name": "batchnormalization_8", "mode": 0, "trainable": false, "gamma_regularizer": null, "axis": 3}, "name": "batchnormalization_8", "class_name": "BatchNormalization", "inbound_nodes": [[["convolution2d_8", 0, 0]]]}, {"config": {"momentum": 0.99, "beta_regularizer": null, "epsilon": 1e-05, "name": "batchnormalization_11", "mode": 0, "trainable": false, "gamma_regularizer": null, "axis": 3}, "name": "batchnormalization_11", "class_name": "BatchNormalization", "inbound_nodes": [[["convolution2d_11", 0, 0]]]}, {"config": {"momentum": 0.99, "beta_regularizer": null, "epsilon": 1e-05, "name": "batchnormalization_12", "mode": 0, "trainable": false, "gamma_regularizer": null, "axis": 3}, "name": "batchnormalization_12", "class_name": "BatchNormalization", "inbound_nodes": [[["convolution2d_12", 0, 0]]]}, {"config": {"dot_axes": -1, "mode": "concat", "name": "mixed0", "mode_type": "raw", "output_shape_type": "raw", "output_shape": null, "concat_axis": 3}, "name": "mixed0", "class_name": "Merge", "inbound_nodes": [[["batchnormalization_6", 0, 0], ["batchnormalization_8", 0, 0], ["batchnormalization_11", 0, 0], ["batchnormalization_12", 0, 0]]]}, {"config": {"dim_ordering": "tf", "nb_row": 1, "name": "convolution2d_16", "W_constraint": null, "init": "glorot_uniform", "subsample": [1, 1], "b_regularizer": null, "nb_filter": 64, "border_mode": "same", "b_constraint": null, "activation": "relu", "activity_regularizer": null, "W_regularizer": null, "bias": true, "trainable": false, "nb_col": 1}, "name": "convolution2d_16", "class_name": "Convolution2D", "inbound_nodes": [[["mixed0", 0, 0]]]}, {"config": {"momentum": 0.99, "beta_regularizer": null, "epsilon": 1e-05, "name": "batchnormalization_16", "mode": 0, "trainable": false, "gamma_regularizer": null, "axis": 3}, "name": "batchnormalization_16", "class_name": "BatchNormalization", "inbound_nodes": [[["convolution2d_16", 0, 0]]]}, {"config": {"dim_ordering": "tf", "nb_row": 1, "name": "convolution2d_14", "W_constraint": null, "init": "glorot_uniform", "subsample": [1, 1], "b_regularizer": null, "nb_filter": 48, "border_mode": "same", "b_constraint": null, "activation": "relu", "activity_regularizer": null, "W_regularizer": null, "bias": true, "trainable": false, "nb_col": 1}, "name": "convolution2d_14", "class_name": "Convolution2D", "inbound_nodes": [[["mixed0", 0, 0]]]}, {"config": {"dim_ordering": "tf", "nb_row": 3, "name": "convolution2d_17", "W_constraint": null, "init": "glorot_uniform", "subsample": [1, 1], "b_regularizer": null, "nb_filter": 96, "border_mode": "same", "b_constraint": null, "activation": "relu", "activity_regularizer": null, "W_regularizer": null, "bias": true, "trainable": false, "nb_col": 3}, "name": "convolution2d_17", "class_name": "Convolution2D", "inbound_nodes": [[["batchnormalization_16", 0, 0]]]}, {"config": {"momentum": 0.99, "beta_regularizer": null, "epsilon": 1e-05, "name": "batchnormalization_14", "mode": 0, "trainable": false, "gamma_regularizer": null, "axis": 3}, "name": "batchnormalization_14", "class_name": "BatchNormalization", "inbound_nodes": [[["convolution2d_14", 0, 0]]]}, {"config": {"momentum": 0.99, "beta_regularizer": null, "epsilon": 1e-05, "name": "batchnormalization_17", "mode": 0, "trainable": false, "gamma_regularizer": null, "axis": 3}, "name": "batchnormalization_17", "class_name": "BatchNormalization", "inbound_nodes": [[["convolution2d_17", 0, 0]]]}, {"config": {"pool_size": [3, 3], "border_mode": "same", "dim_ordering": "tf", "trainable": false, "name": "averagepooling2d_2", "strides": [1, 1]}, "name": "averagepooling2d_2", "class_name": "AveragePooling2D", "inbound_nodes": [[["mixed0", 0, 0]]]}, {"config": {"dim_ordering": "tf", "nb_row": 1, "name": "convolution2d_13", "W_constraint": null, "init": "glorot_uniform", "subsample": [1, 1], "b_regularizer": null, "nb_filter": 64, "border_mode": "same", "b_constraint": null, "activation": "relu", "activity_regularizer": null, "W_regularizer": null, "bias": true, "trainable": false, "nb_col": 1}, "name": "convolution2d_13", "class_name": "Convolution2D", "inbound_nodes": [[["mixed0", 0, 0]]]}, {"config": {"dim_ordering": "tf", "nb_row": 5, "name": "convolution2d_15", "W_constraint": null, "init": "glorot_uniform", "subsample": [1, 1], "b_regularizer": null, "nb_filter": 64, "border_mode": "same", "b_constraint": null, "activation": "relu", "activity_regularizer": null, "W_regularizer": null, "bias": true, "trainable": false, "nb_col": 5}, "name": "convolution2d_15", "class_name": "Convolution2D", "inbound_nodes": [[["batchnormalization_14", 0, 0]]]}, {"config": {"dim_ordering": "tf", "nb_row": 3, "name": "convolution2d_18", "W_constraint": null, "init": "glorot_uniform", "subsample": [1, 1], "b_regularizer": null, "nb_filter": 96, "border_mode": "same", "b_constraint": null, "activation": "relu", "activity_regularizer": null, "W_regularizer": null, "bias": true, "trainable": false, "nb_col": 3}, "name": "convolution2d_18", "class_name": "Convolution2D", "inbound_nodes": [[["batchnormalization_17", 0, 0]]]}, {"config": {"dim_ordering": "tf", "nb_row": 1, "name": "convolution2d_19", "W_constraint": null, "init": "glorot_uniform", "subsample": [1, 1], "b_regularizer": null, "nb_filter": 32, "border_mode": "same", "b_constraint": null, "activation": "relu", "activity_regularizer": null, "W_regularizer": null, "bias": true, "trainable": false, "nb_col": 1}, "name": "convolution2d_19", "class_name": "Convolution2D", "inbound_nodes": [[["averagepooling2d_2", 0, 0]]]}, {"config": {"momentum": 0.99, "beta_regularizer": null, "epsilon": 1e-05, "name": "batchnormalization_13", "mode": 0, "trainable": false, "gamma_regularizer": null, "axis": 3}, "name": "batchnormalization_13", "class_name": "BatchNormalization", "inbound_nodes": [[["convolution2d_13", 0, 0]]]}, {"config": {"momentum": 0.99, "beta_regularizer": null, "epsilon": 1e-05, "name": "batchnormalization_15", "mode": 0, "trainable": false, "gamma_regularizer": null, "axis": 3}, "name": "batchnormalization_15", "class_name": "BatchNormalization", "inbound_nodes": [[["convolution2d_15", 0, 0]]]}, {"config": {"momentum": 0.99, "beta_regularizer": null, "epsilon": 1e-05, "name": "batchnormalization_18", "mode": 0, "trainable": false, "gamma_regularizer": null, "axis": 3}, "name": "batchnormalization_18", "class_name": "BatchNormalization", "inbound_nodes": [[["convolution2d_18", 0, 0]]]}, {"config": {"momentum": 0.99, "beta_regularizer": null, "epsilon": 1e-05, "name": "batchnormalization_19", "mode": 0, "trainable": false, "gamma_regularizer": null, "axis": 3}, "name": "batchnormalization_19", "class_name": "BatchNormalization", "inbound_nodes": [[["convolution2d_19", 0, 0]]]}, {"config": {"dot_axes": -1, "mode": "concat", "name": "mixed1", "mode_type": "raw", "output_shape_type": "raw", "output_shape": null, "concat_axis": 3}, "name": "mixed1", "class_name": "Merge", "inbound_nodes": [[["batchnormalization_13", 0, 0], ["batchnormalization_15", 0, 0], ["batchnormalization_18", 0, 0], ["batchnormalization_19", 0, 0]]]}, {"config": {"dim_ordering": "tf", "nb_row": 1, "name": "convolution2d_23", "W_constraint": null, "init": "glorot_uniform", "subsample": [1, 1], "b_regularizer": null, "nb_filter": 64, "border_mode": "same", "b_constraint": null, "activation": "relu", "activity_regularizer": null, "W_regularizer": null, "bias": true, "trainable": false, "nb_col": 1}, "name": "convolution2d_23", "class_name": "Convolution2D", "inbound_nodes": [[["mixed1", 0, 0]]]}, {"config": {"momentum": 0.99, "beta_regularizer": null, "epsilon": 1e-05, "name": "batchnormalization_23", "mode": 0, "trainable": false, "gamma_regularizer": null, "axis": 3}, "name": "batchnormalization_23", "class_name": "BatchNormalization", "inbound_nodes": [[["convolution2d_23", 0, 0]]]}, {"config": {"dim_ordering": "tf", "nb_row": 1, "name": "convolution2d_21", "W_constraint": null, "init": "glorot_uniform", "subsample": [1, 1], "b_regularizer": null, "nb_filter": 48, "border_mode": "same", "b_constraint": null, "activation": "relu", "activity_regularizer": null, "W_regularizer": null, "bias": true, "trainable": false, "nb_col": 1}, "name": "convolution2d_21", "class_name": "Convolution2D", "inbound_nodes": [[["mixed1", 0, 0]]]}, {"config": {"dim_ordering": "tf", "nb_row": 3, "name": "convolution2d_24", "W_constraint": null, "init": "glorot_uniform", "subsample": [1, 1], "b_regularizer": null, "nb_filter": 96, "border_mode": "same", "b_constraint": null, "activation": "relu", "activity_regularizer": null, "W_regularizer": null, "bias": true, "trainable": false, "nb_col": 3}, "name": "convolution2d_24", "class_name": "Convolution2D", "inbound_nodes": [[["batchnormalization_23", 0, 0]]]}, {"config": {"momentum": 0.99, "beta_regularizer": null, "epsilon": 1e-05, "name": "batchnormalization_21", "mode": 0, "trainable": false, "gamma_regularizer": null, "axis": 3}, "name": "batchnormalization_21", "class_name": "BatchNormalization", "inbound_nodes": [[["convolution2d_21", 0, 0]]]}, {"config": {"momentum": 0.99, "beta_regularizer": null, "epsilon": 1e-05, "name": "batchnormalization_24", "mode": 0, "trainable": false, "gamma_regularizer": null, "axis": 3}, "name": "batchnormalization_24", "class_name": "BatchNormalization", "inbound_nodes": [[["convolution2d_24", 0, 0]]]}, {"config": {"pool_size": [3, 3], "border_mode": "same", "dim_ordering": "tf", "trainable": false, "name": "averagepooling2d_3", "strides": [1, 1]}, "name": "averagepooling2d_3", "class_name": "AveragePooling2D", "inbound_nodes": [[["mixed1", 0, 0]]]}, {"config": {"dim_ordering": "tf", "nb_row": 1, "name": "convolution2d_20", "W_constraint": null, "init": "glorot_uniform", "subsample": [1, 1], "b_regularizer": null, "nb_filter": 64, "border_mode": "same", "b_constraint": null, "activation": "relu", "activity_regularizer": null, "W_regularizer": null, "bias": true, "trainable": false, "nb_col": 1}, "name": "convolution2d_20", "class_name": "Convolution2D", "inbound_nodes": [[["mixed1", 0, 0]]]}, {"config": {"dim_ordering": "tf", "nb_row": 5, "name": "convolution2d_22", "W_constraint": null, "init": "glorot_uniform", "subsample": [1, 1], "b_regularizer": null, "nb_filter": 64, "border_mode": "same", "b_constraint": null, "activation": "relu", "activity_regularizer": null, "W_regularizer": null, "bias": true, "trainable": false, "nb_col": 5}, "name": "convolution2d_22", "class_name": "Convolution2D", "inbound_nodes": [[["batchnormalization_21", 0, 0]]]}, {"config": {"dim_ordering": "tf", "nb_row": 3, "name": "convolution2d_25", "W_constraint": null, "init": "glorot_uniform", "subsample": [1, 1], "b_regularizer": null, "nb_filter": 96, "border_mode": "same", "b_constraint": null, "activation": "relu", "activity_regularizer": null, "W_regularizer": null, "bias": true, "trainable": false, "nb_col": 3}, "name": "convolution2d_25", "class_name": "Convolution2D", "inbound_nodes": [[["batchnormalization_24", 0, 0]]]}, {"config": {"dim_ordering": "tf", "nb_row": 1, "name": "convolution2d_26", "W_constraint": null, "init": "glorot_uniform", "subsample": [1, 1], "b_regularizer": null, "nb_filter": 32, "border_mode": "same", "b_constraint": null, "activation": "relu", "activity_regularizer": null, "W_regularizer": null, "bias": true, "trainable": false, "nb_col": 1}, "name": "convolution2d_26", "class_name": "Convolution2D", "inbound_nodes": [[["averagepooling2d_3", 0, 0]]]}, {"config": {"momentum": 0.99, "beta_regularizer": null, "epsilon": 1e-05, "name": "batchnormalization_20", "mode": 0, "trainable": false, "gamma_regularizer": null, "axis": 3}, "name": "batchnormalization_20", "class_name": "BatchNormalization", "inbound_nodes": [[["convolution2d_20", 0, 0]]]}, {"config": {"momentum": 0.99, "beta_regularizer": null, "epsilon": 1e-05, "name": "batchnormalization_22", "mode": 0, "trainable": false, "gamma_regularizer": null, "axis": 3}, "name": "batchnormalization_22", "class_name": "BatchNormalization", "inbound_nodes": [[["convolution2d_22", 0, 0]]]}, {"config": {"momentum": 0.99, "beta_regularizer": null, "epsilon": 1e-05, "name": "batchnormalization_25", "mode": 0, "trainable": false, "gamma_regularizer": null, "axis": 3}, "name": "batchnormalization_25", "class_name": "BatchNormalization", "inbound_nodes": [[["convolution2d_25", 0, 0]]]}, {"config": {"momentum": 0.99, "beta_regularizer": null, "epsilon": 1e-05, "name": "batchnormalization_26", "mode": 0, "trainable": false, "gamma_regularizer": null, "axis": 3}, "name": "batchnormalization_26", "class_name": "BatchNormalization", "inbound_nodes": [[["convolution2d_26", 0, 0]]]}, {"config": {"dot_axes": -1, "mode": "concat", "name": "mixed2", "mode_type": "raw", "output_shape_type": "raw", "output_shape": null, "concat_axis": 3}, "name": "mixed2", "class_name": "Merge", "inbound_nodes": [[["batchnormalization_20", 0, 0], ["batchnormalization_22", 0, 0], ["batchnormalization_25", 0, 0], ["batchnormalization_26", 0, 0]]]}, {"config": {"dim_ordering": "tf", "nb_row": 1, "name": "convolution2d_28", "W_constraint": null, "init": "glorot_uniform", "subsample": [1, 1], "b_regularizer": null, "nb_filter": 64, "border_mode": "same", "b_constraint": null, "activation": "relu", "activity_regularizer": null, "W_regularizer": null, "bias": true, "trainable": false, "nb_col": 1}, "name": "convolution2d_28", "class_name": "Convolution2D", "inbound_nodes": [[["mixed2", 0, 0]]]}, {"config": {"momentum": 0.99, "beta_regularizer": null, "epsilon": 1e-05, "name": "batchnormalization_28", "mode": 0, "trainable": false, "gamma_regularizer": null, "axis": 3}, "name": "batchnormalization_28", "class_name": "BatchNormalization", "inbound_nodes": [[["convolution2d_28", 0, 0]]]}, {"config": {"dim_ordering": "tf", "nb_row": 3, "name": "convolution2d_29", "W_constraint": null, "init": "glorot_uniform", "subsample": [1, 1], "b_regularizer": null, "nb_filter": 96, "border_mode": "same", "b_constraint": null, "activation": "relu", "activity_regularizer": null, "W_regularizer": null, "bias": true, "trainable": false, "nb_col": 3}, "name": "convolution2d_29", "class_name": "Convolution2D", "inbound_nodes": [[["batchnormalization_28", 0, 0]]]}, {"config": {"momentum": 0.99, "beta_regularizer": null, "epsilon": 1e-05, "name": "batchnormalization_29", "mode": 0, "trainable": false, "gamma_regularizer": null, "axis": 3}, "name": "batchnormalization_29", "class_name": "BatchNormalization", "inbound_nodes": [[["convolution2d_29", 0, 0]]]}, {"config": {"dim_ordering": "tf", "nb_row": 3, "name": "convolution2d_27", "W_constraint": null, "init": "glorot_uniform", "subsample": [2, 2], "b_regularizer": null, "nb_filter": 384, "border_mode": "valid", "b_constraint": null, "activation": "relu", "activity_regularizer": null, "W_regularizer": null, "bias": true, "trainable": false, "nb_col": 3}, "name": "convolution2d_27", "class_name": "Convolution2D", "inbound_nodes": [[["mixed2", 0, 0]]]}, {"config": {"dim_ordering": "tf", "nb_row": 3, "name": "convolution2d_30", "W_constraint": null, "init": "glorot_uniform", "subsample": [2, 2], "b_regularizer": null, "nb_filter": 96, "border_mode": "valid", "b_constraint": null, "activation": "relu", "activity_regularizer": null, "W_regularizer": null, "bias": true, "trainable": false, "nb_col": 3}, "name": "convolution2d_30", "class_name": "Convolution2D", "inbound_nodes": [[["batchnormalization_29", 0, 0]]]}, {"config": {"momentum": 0.99, "beta_regularizer": null, "epsilon": 1e-05, "name": "batchnormalization_27", "mode": 0, "trainable": false, "gamma_regularizer": null, "axis": 3}, "name": "batchnormalization_27", "class_name": "BatchNormalization", "inbound_nodes": [[["convolution2d_27", 0, 0]]]}, {"config": {"momentum": 0.99, "beta_regularizer": null, "epsilon": 1e-05, "name": "batchnormalization_30", "mode": 0, "trainable": false, "gamma_regularizer": null, "axis": 3}, "name": "batchnormalization_30", "class_name": "BatchNormalization", "inbound_nodes": [[["convolution2d_30", 0, 0]]]}, {"config": {"pool_size": [3, 3], "border_mode": "valid", "dim_ordering": "tf", "trainable": false, "name": "maxpooling2d_3", "strides": [2, 2]}, "name": "maxpooling2d_3", "class_name": "MaxPooling2D", "inbound_nodes": [[["mixed2", 0, 0]]]}, {"config": {"dot_axes": -1, "mode": "concat", "name": "mixed3", "mode_type": "raw", "output_shape_type": "raw", "output_shape": null, "concat_axis": 3}, "name": "mixed3", "class_name": "Merge", "inbound_nodes": [[["batchnormalization_27", 0, 0], ["batchnormalization_30", 0, 0], ["maxpooling2d_3", 0, 0]]]}, {"config": {"dim_ordering": "tf", "nb_row": 1, "name": "convolution2d_35", "W_constraint": null, "init": "glorot_uniform", "subsample": [1, 1], "b_regularizer": null, "nb_filter": 128, "border_mode": "same", "b_constraint": null, "activation": "relu", "activity_regularizer": null, "W_regularizer": null, "bias": true, "trainable": false, "nb_col": 1}, "name": "convolution2d_35", "class_name": "Convolution2D", "inbound_nodes": [[["mixed3", 0, 0]]]}, {"config": {"momentum": 0.99, "beta_regularizer": null, "epsilon": 1e-05, "name": "batchnormalization_35", "mode": 0, "trainable": false, "gamma_regularizer": null, "axis": 3}, "name": "batchnormalization_35", "class_name": "BatchNormalization", "inbound_nodes": [[["convolution2d_35", 0, 0]]]}, {"config": {"dim_ordering": "tf", "nb_row": 7, "name": "convolution2d_36", "W_constraint": null, "init": "glorot_uniform", "subsample": [1, 1], "b_regularizer": null, "nb_filter": 128, "border_mode": "same", "b_constraint": null, "activation": "relu", "activity_regularizer": null, "W_regularizer": null, "bias": true, "trainable": false, "nb_col": 1}, "name": "convolution2d_36", "class_name": "Convolution2D", "inbound_nodes": [[["batchnormalization_35", 0, 0]]]}, {"config": {"momentum": 0.99, "beta_regularizer": null, "epsilon": 1e-05, "name": "batchnormalization_36", "mode": 0, "trainable": false, "gamma_regularizer": null, "axis": 3}, "name": "batchnormalization_36", "class_name": "BatchNormalization", "inbound_nodes": [[["convolution2d_36", 0, 0]]]}, {"config": {"dim_ordering": "tf", "nb_row": 1, "name": "convolution2d_32", "W_constraint": null, "init": "glorot_uniform", "subsample": [1, 1], "b_regularizer": null, "nb_filter": 128, "border_mode": "same", "b_constraint": null, "activation": "relu", "activity_regularizer": null, "W_regularizer": null, "bias": true, "trainable": false, "nb_col": 1}, "name": "convolution2d_32", "class_name": "Convolution2D", "inbound_nodes": [[["mixed3", 0, 0]]]}, {"config": {"dim_ordering": "tf", "nb_row": 1, "name": "convolution2d_37", "W_constraint": null, "init": "glorot_uniform", "subsample": [1, 1], "b_regularizer": null, "nb_filter": 128, "border_mode": "same", "b_constraint": null, "activation": "relu", "activity_regularizer": null, "W_regularizer": null, "bias": true, "trainable": false, "nb_col": 7}, "name": "convolution2d_37", "class_name": "Convolution2D", "inbound_nodes": [[["batchnormalization_36", 0, 0]]]}, {"config": {"momentum": 0.99, "beta_regularizer": null, "epsilon": 1e-05, "name": "batchnormalization_32", "mode": 0, "trainable": false, "gamma_regularizer": null, "axis": 3}, "name": "batchnormalization_32", "class_name": "BatchNormalization", "inbound_nodes": [[["convolution2d_32", 0, 0]]]}, {"config": {"momentum": 0.99, "beta_regularizer": null, "epsilon": 1e-05, "name": "batchnormalization_37", "mode": 0, "trainable": false, "gamma_regularizer": null, "axis": 3}, "name": "batchnormalization_37", "class_name": "BatchNormalization", "inbound_nodes": [[["convolution2d_37", 0, 0]]]}, {"config": {"dim_ordering": "tf", "nb_row": 1, "name": "convolution2d_33", "W_constraint": null, "init": "glorot_uniform", "subsample": [1, 1], "b_regularizer": null, "nb_filter": 128, "border_mode": "same", "b_constraint": null, "activation": "relu", "activity_regularizer": null, "W_regularizer": null, "bias": true, "trainable": false, "nb_col": 7}, "name": "convolution2d_33", "class_name": "Convolution2D", "inbound_nodes": [[["batchnormalization_32", 0, 0]]]}, {"config": {"dim_ordering": "tf", "nb_row": 7, "name": "convolution2d_38", "W_constraint": null, "init": "glorot_uniform", "subsample": [1, 1], "b_regularizer": null, "nb_filter": 128, "border_mode": "same", "b_constraint": null, "activation": "relu", "activity_regularizer": null, "W_regularizer": null, "bias": true, "trainable": false, "nb_col": 1}, "name": "convolution2d_38", "class_name": "Convolution2D", "inbound_nodes": [[["batchnormalization_37", 0, 0]]]}, {"config": {"momentum": 0.99, "beta_regularizer": null, "epsilon": 1e-05, "name": "batchnormalization_33", "mode": 0, "trainable": false, "gamma_regularizer": null, "axis": 3}, "name": "batchnormalization_33", "class_name": "BatchNormalization", "inbound_nodes": [[["convolution2d_33", 0, 0]]]}, {"config": {"momentum": 0.99, "beta_regularizer": null, "epsilon": 1e-05, "name": "batchnormalization_38", "mode": 0, "trainable": false, "gamma_regularizer": null, "axis": 3}, "name": "batchnormalization_38", "class_name": "BatchNormalization", "inbound_nodes": [[["convolution2d_38", 0, 0]]]}, {"config": {"pool_size": [3, 3], "border_mode": "same", "dim_ordering": "tf", "trainable": false, "name": "averagepooling2d_4", "strides": [1, 1]}, "name": "averagepooling2d_4", "class_name": "AveragePooling2D", "inbound_nodes": [[["mixed3", 0, 0]]]}, {"config": {"dim_ordering": "tf", "nb_row": 1, "name": "convolution2d_31", "W_constraint": null, "init": "glorot_uniform", "subsample": [1, 1], "b_regularizer": null, "nb_filter": 192, "border_mode": "same", "b_constraint": null, "activation": "relu", "activity_regularizer": null, "W_regularizer": null, "bias": true, "trainable": false, "nb_col": 1}, "name": "convolution2d_31", "class_name": "Convolution2D", "inbound_nodes": [[["mixed3", 0, 0]]]}, {"config": {"dim_ordering": "tf", "nb_row": 7, "name": "convolution2d_34", "W_constraint": null, "init": "glorot_uniform", "subsample": [1, 1], "b_regularizer": null, "nb_filter": 192, "border_mode": "same", "b_constraint": null, "activation": "relu", "activity_regularizer": null, "W_regularizer": null, "bias": true, "trainable": false, "nb_col": 1}, "name": "convolution2d_34", "class_name": "Convolution2D", "inbound_nodes": [[["batchnormalization_33", 0, 0]]]}, {"config": {"dim_ordering": "tf", "nb_row": 1, "name": "convolution2d_39", "W_constraint": null, "init": "glorot_uniform", "subsample": [1, 1], "b_regularizer": null, "nb_filter": 192, "border_mode": "same", "b_constraint": null, "activation": "relu", "activity_regularizer": null, "W_regularizer": null, "bias": true, "trainable": false, "nb_col": 7}, "name": "convolution2d_39", "class_name": "Convolution2D", "inbound_nodes": [[["batchnormalization_38", 0, 0]]]}, {"config": {"dim_ordering": "tf", "nb_row": 1, "name": "convolution2d_40", "W_constraint": null, "init": "glorot_uniform", "subsample": [1, 1], "b_regularizer": null, "nb_filter": 192, "border_mode": "same", "b_constraint": null, "activation": "relu", "activity_regularizer": null, "W_regularizer": null, "bias": true, "trainable": false, "nb_col": 1}, "name": "convolution2d_40", "class_name": "Convolution2D", "inbound_nodes": [[["averagepooling2d_4", 0, 0]]]}, {"config": {"momentum": 0.99, "beta_regularizer": null, "epsilon": 1e-05, "name": "batchnormalization_31", "mode": 0, "trainable": false, "gamma_regularizer": null, "axis": 3}, "name": "batchnormalization_31", "class_name": "BatchNormalization", "inbound_nodes": [[["convolution2d_31", 0, 0]]]}, {"config": {"momentum": 0.99, "beta_regularizer": null, "epsilon": 1e-05, "name": "batchnormalization_34", "mode": 0, "trainable": false, "gamma_regularizer": null, "axis": 3}, "name": "batchnormalization_34", "class_name": "BatchNormalization", "inbound_nodes": [[["convolution2d_34", 0, 0]]]}, {"config": {"momentum": 0.99, "beta_regularizer": null, "epsilon": 1e-05, "name": "batchnormalization_39", "mode": 0, "trainable": false, "gamma_regularizer": null, "axis": 3}, "name": "batchnormalization_39", "class_name": "BatchNormalization", "inbound_nodes": [[["convolution2d_39", 0, 0]]]}, {"config": {"momentum": 0.99, "beta_regularizer": null, "epsilon": 1e-05, "name": "batchnormalization_40", "mode": 0, "trainable": false, "gamma_regularizer": null, "axis": 3}, "name": "batchnormalization_40", "class_name": "BatchNormalization", "inbound_nodes": [[["convolution2d_40", 0, 0]]]}, {"config": {"dot_axes": -1, "mode": "concat", "name": "mixed4", "mode_type": "raw", "output_shape_type": "raw", "output_shape": null, "concat_axis": 3}, "name": "mixed4", "class_name": "Merge", "inbound_nodes": [[["batchnormalization_31", 0, 0], ["batchnormalization_34", 0, 0], ["batchnormalization_39", 0, 0], ["batchnormalization_40", 0, 0]]]}, {"config": {"dim_ordering": "tf", "nb_row": 1, "name": "convolution2d_45", "W_constraint": null, "init": "glorot_uniform", "subsample": [1, 1], "b_regularizer": null, "nb_filter": 160, "border_mode": "same", "b_constraint": null, "activation": "relu", "activity_regularizer": null, "W_regularizer": null, "bias": true, "trainable": false, "nb_col": 1}, "name": "convolution2d_45", "class_name": "Convolution2D", "inbound_nodes": [[["mixed4", 0, 0]]]}, {"config": {"momentum": 0.99, "beta_regularizer": null, "epsilon": 1e-05, "name": "batchnormalization_45", "mode": 0, "trainable": false, "gamma_regularizer": null, "axis": 3}, "name": "batchnormalization_45", "class_name": "BatchNormalization", "inbound_nodes": [[["convolution2d_45", 0, 0]]]}, {"config": {"dim_ordering": "tf", "nb_row": 7, "name": "convolution2d_46", "W_constraint": null, "init": "glorot_uniform", "subsample": [1, 1], "b_regularizer": null, "nb_filter": 160, "border_mode": "same", "b_constraint": null, "activation": "relu", "activity_regularizer": null, "W_regularizer": null, "bias": true, "trainable": false, "nb_col": 1}, "name": "convolution2d_46", "class_name": "Convolution2D", "inbound_nodes": [[["batchnormalization_45", 0, 0]]]}, {"config": {"momentum": 0.99, "beta_regularizer": null, "epsilon": 1e-05, "name": "batchnormalization_46", "mode": 0, "trainable": false, "gamma_regularizer": null, "axis": 3}, "name": "batchnormalization_46", "class_name": "BatchNormalization", "inbound_nodes": [[["convolution2d_46", 0, 0]]]}, {"config": {"dim_ordering": "tf", "nb_row": 1, "name": "convolution2d_42", "W_constraint": null, "init": "glorot_uniform", "subsample": [1, 1], "b_regularizer": null, "nb_filter": 160, "border_mode": "same", "b_constraint": null, "activation": "relu", "activity_regularizer": null, "W_regularizer": null, "bias": true, "trainable": false, "nb_col": 1}, "name": "convolution2d_42", "class_name": "Convolution2D", "inbound_nodes": [[["mixed4", 0, 0]]]}, {"config": {"dim_ordering": "tf", "nb_row": 1, "name": "convolution2d_47", "W_constraint": null, "init": "glorot_uniform", "subsample": [1, 1], "b_regularizer": null, "nb_filter": 160, "border_mode": "same", "b_constraint": null, "activation": "relu", "activity_regularizer": null, "W_regularizer": null, "bias": true, "trainable": false, "nb_col": 7}, "name": "convolution2d_47", "class_name": "Convolution2D", "inbound_nodes": [[["batchnormalization_46", 0, 0]]]}, {"config": {"momentum": 0.99, "beta_regularizer": null, "epsilon": 1e-05, "name": "batchnormalization_42", "mode": 0, "trainable": false, "gamma_regularizer": null, "axis": 3}, "name": "batchnormalization_42", "class_name": "BatchNormalization", "inbound_nodes": [[["convolution2d_42", 0, 0]]]}, {"config": {"momentum": 0.99, "beta_regularizer": null, "epsilon": 1e-05, "name": "batchnormalization_47", "mode": 0, "trainable": false, "gamma_regularizer": null, "axis": 3}, "name": "batchnormalization_47", "class_name": "BatchNormalization", "inbound_nodes": [[["convolution2d_47", 0, 0]]]}, {"config": {"dim_ordering": "tf", "nb_row": 1, "name": "convolution2d_43", "W_constraint": null, "init": "glorot_uniform", "subsample": [1, 1], "b_regularizer": null, "nb_filter": 160, "border_mode": "same", "b_constraint": null, "activation": "relu", "activity_regularizer": null, "W_regularizer": null, "bias": true, "trainable": false, "nb_col": 7}, "name": "convolution2d_43", "class_name": "Convolution2D", "inbound_nodes": [[["batchnormalization_42", 0, 0]]]}, {"config": {"dim_ordering": "tf", "nb_row": 7, "name": "convolution2d_48", "W_constraint": null, "init": "glorot_uniform", "subsample": [1, 1], "b_regularizer": null, "nb_filter": 160, "border_mode": "same", "b_constraint": null, "activation": "relu", "activity_regularizer": null, "W_regularizer": null, "bias": true, "trainable": false, "nb_col": 1}, "name": "convolution2d_48", "class_name": "Convolution2D", "inbound_nodes": [[["batchnormalization_47", 0, 0]]]}, {"config": {"momentum": 0.99, "beta_regularizer": null, "epsilon": 1e-05, "name": "batchnormalization_43", "mode": 0, "trainable": false, "gamma_regularizer": null, "axis": 3}, "name": "batchnormalization_43", "class_name": "BatchNormalization", "inbound_nodes": [[["convolution2d_43", 0, 0]]]}, {"config": {"momentum": 0.99, "beta_regularizer": null, "epsilon": 1e-05, "name": "batchnormalization_48", "mode": 0, "trainable": false, "gamma_regularizer": null, "axis": 3}, "name": "batchnormalization_48", "class_name": "BatchNormalization", "inbound_nodes": [[["convolution2d_48", 0, 0]]]}, {"config": {"pool_size": [3, 3], "border_mode": "same", "dim_ordering": "tf", "trainable": false, "name": "averagepooling2d_5", "strides": [1, 1]}, "name": "averagepooling2d_5", "class_name": "AveragePooling2D", "inbound_nodes": [[["mixed4", 0, 0]]]}, {"config": {"dim_ordering": "tf", "nb_row": 1, "name": "convolution2d_41", "W_constraint": null, "init": "glorot_uniform", "subsample": [1, 1], "b_regularizer": null, "nb_filter": 192, "border_mode": "same", "b_constraint": null, "activation": "relu", "activity_regularizer": null, "W_regularizer": null, "bias": true, "trainable": false, "nb_col": 1}, "name": "convolution2d_41", "class_name": "Convolution2D", "inbound_nodes": [[["mixed4", 0, 0]]]}, {"config": {"dim_ordering": "tf", "nb_row": 7, "name": "convolution2d_44", "W_constraint": null, "init": "glorot_uniform", "subsample": [1, 1], "b_regularizer": null, "nb_filter": 192, "border_mode": "same", "b_constraint": null, "activation": "relu", "activity_regularizer": null, "W_regularizer": null, "bias": true, "trainable": false, "nb_col": 1}, "name": "convolution2d_44", "class_name": "Convolution2D", "inbound_nodes": [[["batchnormalization_43", 0, 0]]]}, {"config": {"dim_ordering": "tf", "nb_row": 1, "name": "convolution2d_49", "W_constraint": null, "init": "glorot_uniform", "subsample": [1, 1], "b_regularizer": null, "nb_filter": 192, "border_mode": "same", "b_constraint": null, "activation": "relu", "activity_regularizer": null, "W_regularizer": null, "bias": true, "trainable": false, "nb_col": 7}, "name": "convolution2d_49", "class_name": "Convolution2D", "inbound_nodes": [[["batchnormalization_48", 0, 0]]]}, {"config": {"dim_ordering": "tf", "nb_row": 1, "name": "convolution2d_50", "W_constraint": null, "init": "glorot_uniform", "subsample": [1, 1], "b_regularizer": null, "nb_filter": 192, "border_mode": "same", "b_constraint": null, "activation": "relu", "activity_regularizer": null, "W_regularizer": null, "bias": true, "trainable": false, "nb_col": 1}, "name": "convolution2d_50", "class_name": "Convolution2D", "inbound_nodes": [[["averagepooling2d_5", 0, 0]]]}, {"config": {"momentum": 0.99, "beta_regularizer": null, "epsilon": 1e-05, "name": "batchnormalization_41", "mode": 0, "trainable": false, "gamma_regularizer": null, "axis": 3}, "name": "batchnormalization_41", "class_name": "BatchNormalization", "inbound_nodes": [[["convolution2d_41", 0, 0]]]}, {"config": {"momentum": 0.99, "beta_regularizer": null, "epsilon": 1e-05, "name": "batchnormalization_44", "mode": 0, "trainable": false, "gamma_regularizer": null, "axis": 3}, "name": "batchnormalization_44", "class_name": "BatchNormalization", "inbound_nodes": [[["convolution2d_44", 0, 0]]]}, {"config": {"momentum": 0.99, "beta_regularizer": null, "epsilon": 1e-05, "name": "batchnormalization_49", "mode": 0, "trainable": false, "gamma_regularizer": null, "axis": 3}, "name": "batchnormalization_49", "class_name": "BatchNormalization", "inbound_nodes": [[["convolution2d_49", 0, 0]]]}, {"config": {"momentum": 0.99, "beta_regularizer": null, "epsilon": 1e-05, "name": "batchnormalization_50", "mode": 0, "trainable": false, "gamma_regularizer": null, "axis": 3}, "name": "batchnormalization_50", "class_name": "BatchNormalization", "inbound_nodes": [[["convolution2d_50", 0, 0]]]}, {"config": {"dot_axes": -1, "mode": "concat", "name": "mixed5", "mode_type": "raw", "output_shape_type": "raw", "output_shape": null, "concat_axis": 3}, "name": "mixed5", "class_name": "Merge", "inbound_nodes": [[["batchnormalization_41", 0, 0], ["batchnormalization_44", 0, 0], ["batchnormalization_49", 0, 0], ["batchnormalization_50", 0, 0]]]}, {"config": {"dim_ordering": "tf", "nb_row": 1, "name": "convolution2d_55", "W_constraint": null, "init": "glorot_uniform", "subsample": [1, 1], "b_regularizer": null, "nb_filter": 160, "border_mode": "same", "b_constraint": null, "activation": "relu", "activity_regularizer": null, "W_regularizer": null, "bias": true, "trainable": true, "nb_col": 1}, "name": "convolution2d_55", "class_name": "Convolution2D", "inbound_nodes": [[["mixed5", 0, 0]]]}, {"config": {"momentum": 0.99, "beta_regularizer": null, "epsilon": 1e-05, "name": "batchnormalization_55", "mode": 0, "trainable": true, "gamma_regularizer": null, "axis": 3}, "name": "batchnormalization_55", "class_name": "BatchNormalization", "inbound_nodes": [[["convolution2d_55", 0, 0]]]}, {"config": {"dim_ordering": "tf", "nb_row": 7, "name": "convolution2d_56", "W_constraint": null, "init": "glorot_uniform", "subsample": [1, 1], "b_regularizer": null, "nb_filter": 160, "border_mode": "same", "b_constraint": null, "activation": "relu", "activity_regularizer": null, "W_regularizer": null, "bias": true, "trainable": true, "nb_col": 1}, "name": "convolution2d_56", "class_name": "Convolution2D", "inbound_nodes": [[["batchnormalization_55", 0, 0]]]}, {"config": {"momentum": 0.99, "beta_regularizer": null, "epsilon": 1e-05, "name": "batchnormalization_56", "mode": 0, "trainable": true, "gamma_regularizer": null, "axis": 3}, "name": "batchnormalization_56", "class_name": "BatchNormalization", "inbound_nodes": [[["convolution2d_56", 0, 0]]]}, {"config": {"dim_ordering": "tf", "nb_row": 1, "name": "convolution2d_52", "W_constraint": null, "init": "glorot_uniform", "subsample": [1, 1], "b_regularizer": null, "nb_filter": 160, "border_mode": "same", "b_constraint": null, "activation": "relu", "activity_regularizer": null, "W_regularizer": null, "bias": true, "trainable": true, "nb_col": 1}, "name": "convolution2d_52", "class_name": "Convolution2D", "inbound_nodes": [[["mixed5", 0, 0]]]}, {"config": {"dim_ordering": "tf", "nb_row": 1, "name": "convolution2d_57", "W_constraint": null, "init": "glorot_uniform", "subsample": [1, 1], "b_regularizer": null, "nb_filter": 160, "border_mode": "same", "b_constraint": null, "activation": "relu", "activity_regularizer": null, "W_regularizer": null, "bias": true, "trainable": true, "nb_col": 7}, "name": "convolution2d_57", "class_name": "Convolution2D", "inbound_nodes": [[["batchnormalization_56", 0, 0]]]}, {"config": {"momentum": 0.99, "beta_regularizer": null, "epsilon": 1e-05, "name": "batchnormalization_52", "mode": 0, "trainable": true, "gamma_regularizer": null, "axis": 3}, "name": "batchnormalization_52", "class_name": "BatchNormalization", "inbound_nodes": [[["convolution2d_52", 0, 0]]]}, {"config": {"momentum": 0.99, "beta_regularizer": null, "epsilon": 1e-05, "name": "batchnormalization_57", "mode": 0, "trainable": true, "gamma_regularizer": null, "axis": 3}, "name": "batchnormalization_57", "class_name": "BatchNormalization", "inbound_nodes": [[["convolution2d_57", 0, 0]]]}, {"config": {"dim_ordering": "tf", "nb_row": 1, "name": "convolution2d_53", "W_constraint": null, "init": "glorot_uniform", "subsample": [1, 1], "b_regularizer": null, "nb_filter": 160, "border_mode": "same", "b_constraint": null, "activation": "relu", "activity_regularizer": null, "W_regularizer": null, "bias": true, "trainable": true, "nb_col": 7}, "name": "convolution2d_53", "class_name": "Convolution2D", "inbound_nodes": [[["batchnormalization_52", 0, 0]]]}, {"config": {"dim_ordering": "tf", "nb_row": 7, "name": "convolution2d_58", "W_constraint": null, "init": "glorot_uniform", "subsample": [1, 1], "b_regularizer": null, "nb_filter": 160, "border_mode": "same", "b_constraint": null, "activation": "relu", "activity_regularizer": null, "W_regularizer": null, "bias": true, "trainable": true, "nb_col": 1}, "name": "convolution2d_58", "class_name": "Convolution2D", "inbound_nodes": [[["batchnormalization_57", 0, 0]]]}, {"config": {"momentum": 0.99, "beta_regularizer": null, "epsilon": 1e-05, "name": "batchnormalization_53", "mode": 0, "trainable": true, "gamma_regularizer": null, "axis": 3}, "name": "batchnormalization_53", "class_name": "BatchNormalization", "inbound_nodes": [[["convolution2d_53", 0, 0]]]}, {"config": {"momentum": 0.99, "beta_regularizer": null, "epsilon": 1e-05, "name": "batchnormalization_58", "mode": 0, "trainable": true, "gamma_regularizer": null, "axis": 3}, "name": "batchnormalization_58", "class_name": "BatchNormalization", "inbound_nodes": [[["convolution2d_58", 0, 0]]]}, {"config": {"pool_size": [3, 3], "border_mode": "same", "dim_ordering": "tf", "trainable": true, "name": "averagepooling2d_6", "strides": [1, 1]}, "name": "averagepooling2d_6", "class_name": "AveragePooling2D", "inbound_nodes": [[["mixed5", 0, 0]]]}, {"config": {"dim_ordering": "tf", "nb_row": 1, "name": "convolution2d_51", "W_constraint": null, "init": "glorot_uniform", "subsample": [1, 1], "b_regularizer": null, "nb_filter": 192, "border_mode": "same", "b_constraint": null, "activation": "relu", "activity_regularizer": null, "W_regularizer": null, "bias": true, "trainable": true, "nb_col": 1}, "name": "convolution2d_51", "class_name": "Convolution2D", "inbound_nodes": [[["mixed5", 0, 0]]]}, {"config": {"dim_ordering": "tf", "nb_row": 7, "name": "convolution2d_54", "W_constraint": null, "init": "glorot_uniform", "subsample": [1, 1], "b_regularizer": null, "nb_filter": 192, "border_mode": "same", "b_constraint": null, "activation": "relu", "activity_regularizer": null, "W_regularizer": null, "bias": true, "trainable": true, "nb_col": 1}, "name": "convolution2d_54", "class_name": "Convolution2D", "inbound_nodes": [[["batchnormalization_53", 0, 0]]]}, {"config": {"dim_ordering": "tf", "nb_row": 1, "name": "convolution2d_59", "W_constraint": null, "init": "glorot_uniform", "subsample": [1, 1], "b_regularizer": null, "nb_filter": 192, "border_mode": "same", "b_constraint": null, "activation": "relu", "activity_regularizer": null, "W_regularizer": null, "bias": true, "trainable": true, "nb_col": 7}, "name": "convolution2d_59", "class_name": "Convolution2D", "inbound_nodes": [[["batchnormalization_58", 0, 0]]]}, {"config": {"dim_ordering": "tf", "nb_row": 1, "name": "convolution2d_60", "W_constraint": null, "init": "glorot_uniform", "subsample": [1, 1], "b_regularizer": null, "nb_filter": 192, "border_mode": "same", "b_constraint": null, "activation": "relu", "activity_regularizer": null, "W_regularizer": null, "bias": true, "trainable": true, "nb_col": 1}, "name": "convolution2d_60", "class_name": "Convolution2D", "inbound_nodes": [[["averagepooling2d_6", 0, 0]]]}, {"config": {"momentum": 0.99, "beta_regularizer": null, "epsilon": 1e-05, "name": "batchnormalization_51", "mode": 0, "trainable": true, "gamma_regularizer": null, "axis": 3}, "name": "batchnormalization_51", "class_name": "BatchNormalization", "inbound_nodes": [[["convolution2d_51", 0, 0]]]}, {"config": {"momentum": 0.99, "beta_regularizer": null, "epsilon": 1e-05, "name": "batchnormalization_54", "mode": 0, "trainable": true, "gamma_regularizer": null, "axis": 3}, "name": "batchnormalization_54", "class_name": "BatchNormalization", "inbound_nodes": [[["convolution2d_54", 0, 0]]]}, {"config": {"momentum": 0.99, "beta_regularizer": null, "epsilon": 1e-05, "name": "batchnormalization_59", "mode": 0, "trainable": true, "gamma_regularizer": null, "axis": 3}, "name": "batchnormalization_59", "class_name": "BatchNormalization", "inbound_nodes": [[["convolution2d_59", 0, 0]]]}, {"config": {"momentum": 0.99, "beta_regularizer": null, "epsilon": 1e-05, "name": "batchnormalization_60", "mode": 0, "trainable": true, "gamma_regularizer": null, "axis": 3}, "name": "batchnormalization_60", "class_name": "BatchNormalization", "inbound_nodes": [[["convolution2d_60", 0, 0]]]}, {"config": {"dot_axes": -1, "mode": "concat", "name": "mixed6", "mode_type": "raw", "output_shape_type": "raw", "output_shape": null, "concat_axis": 3}, "name": "mixed6", "class_name": "Merge", "inbound_nodes": [[["batchnormalization_51", 0, 0], ["batchnormalization_54", 0, 0], ["batchnormalization_59", 0, 0], ["batchnormalization_60", 0, 0]]]}, {"config": {"dim_ordering": "tf", "nb_row": 1, "name": "convolution2d_65", "W_constraint": null, "init": "glorot_uniform", "subsample": [1, 1], "b_regularizer": null, "nb_filter": 160, "border_mode": "same", "b_constraint": null, "activation": "relu", "activity_regularizer": null, "W_regularizer": null, "bias": true, "trainable": true, "nb_col": 1}, "name": "convolution2d_65", "class_name": "Convolution2D", "inbound_nodes": [[["mixed6", 0, 0]]]}, {"config": {"momentum": 0.99, "beta_regularizer": null, "epsilon": 1e-05, "name": "batchnormalization_65", "mode": 0, "trainable": true, "gamma_regularizer": null, "axis": 3}, "name": "batchnormalization_65", "class_name": "BatchNormalization", "inbound_nodes": [[["convolution2d_65", 0, 0]]]}, {"config": {"dim_ordering": "tf", "nb_row": 7, "name": "convolution2d_66", "W_constraint": null, "init": "glorot_uniform", "subsample": [1, 1], "b_regularizer": null, "nb_filter": 192, "border_mode": "same", "b_constraint": null, "activation": "relu", "activity_regularizer": null, "W_regularizer": null, "bias": true, "trainable": true, "nb_col": 1}, "name": "convolution2d_66", "class_name": "Convolution2D", "inbound_nodes": [[["batchnormalization_65", 0, 0]]]}, {"config": {"momentum": 0.99, "beta_regularizer": null, "epsilon": 1e-05, "name": "batchnormalization_66", "mode": 0, "trainable": true, "gamma_regularizer": null, "axis": 3}, "name": "batchnormalization_66", "class_name": "BatchNormalization", "inbound_nodes": [[["convolution2d_66", 0, 0]]]}, {"config": {"dim_ordering": "tf", "nb_row": 1, "name": "convolution2d_62", "W_constraint": null, "init": "glorot_uniform", "subsample": [1, 1], "b_regularizer": null, "nb_filter": 192, "border_mode": "same", "b_constraint": null, "activation": "relu", "activity_regularizer": null, "W_regularizer": null, "bias": true, "trainable": true, "nb_col": 1}, "name": "convolution2d_62", "class_name": "Convolution2D", "inbound_nodes": [[["mixed6", 0, 0]]]}, {"config": {"dim_ordering": "tf", "nb_row": 1, "name": "convolution2d_67", "W_constraint": null, "init": "glorot_uniform", "subsample": [1, 1], "b_regularizer": null, "nb_filter": 192, "border_mode": "same", "b_constraint": null, "activation": "relu", "activity_regularizer": null, "W_regularizer": null, "bias": true, "trainable": true, "nb_col": 7}, "name": "convolution2d_67", "class_name": "Convolution2D", "inbound_nodes": [[["batchnormalization_66", 0, 0]]]}, {"config": {"momentum": 0.99, "beta_regularizer": null, "epsilon": 1e-05, "name": "batchnormalization_62", "mode": 0, "trainable": true, "gamma_regularizer": null, "axis": 3}, "name": "batchnormalization_62", "class_name": "BatchNormalization", "inbound_nodes": [[["convolution2d_62", 0, 0]]]}, {"config": {"momentum": 0.99, "beta_regularizer": null, "epsilon": 1e-05, "name": "batchnormalization_67", "mode": 0, "trainable": true, "gamma_regularizer": null, "axis": 3}, "name": "batchnormalization_67", "class_name": "BatchNormalization", "inbound_nodes": [[["convolution2d_67", 0, 0]]]}, {"config": {"dim_ordering": "tf", "nb_row": 1, "name": "convolution2d_63", "W_constraint": null, "init": "glorot_uniform", "subsample": [1, 1], "b_regularizer": null, "nb_filter": 192, "border_mode": "same", "b_constraint": null, "activation": "relu", "activity_regularizer": null, "W_regularizer": null, "bias": true, "trainable": true, "nb_col": 7}, "name": "convolution2d_63", "class_name": "Convolution2D", "inbound_nodes": [[["batchnormalization_62", 0, 0]]]}, {"config": {"dim_ordering": "tf", "nb_row": 7, "name": "convolution2d_68", "W_constraint": null, "init": "glorot_uniform", "subsample": [1, 1], "b_regularizer": null, "nb_filter": 192, "border_mode": "same", "b_constraint": null, "activation": "relu", "activity_regularizer": null, "W_regularizer": null, "bias": true, "trainable": true, "nb_col": 1}, "name": "convolution2d_68", "class_name": "Convolution2D", "inbound_nodes": [[["batchnormalization_67", 0, 0]]]}, {"config": {"momentum": 0.99, "beta_regularizer": null, "epsilon": 1e-05, "name": "batchnormalization_63", "mode": 0, "trainable": true, "gamma_regularizer": null, "axis": 3}, "name": "batchnormalization_63", "class_name": "BatchNormalization", "inbound_nodes": [[["convolution2d_63", 0, 0]]]}, {"config": {"momentum": 0.99, "beta_regularizer": null, "epsilon": 1e-05, "name": "batchnormalization_68", "mode": 0, "trainable": true, "gamma_regularizer": null, "axis": 3}, "name": "batchnormalization_68", "class_name": "BatchNormalization", "inbound_nodes": [[["convolution2d_68", 0, 0]]]}, {"config": {"pool_size": [3, 3], "border_mode": "same", "dim_ordering": "tf", "trainable": true, "name": "averagepooling2d_7", "strides": [1, 1]}, "name": "averagepooling2d_7", "class_name": "AveragePooling2D", "inbound_nodes": [[["mixed6", 0, 0]]]}, {"config": {"dim_ordering": "tf", "nb_row": 1, "name": "convolution2d_61", "W_constraint": null, "init": "glorot_uniform", "subsample": [1, 1], "b_regularizer": null, "nb_filter": 192, "border_mode": "same", "b_constraint": null, "activation": "relu", "activity_regularizer": null, "W_regularizer": null, "bias": true, "trainable": true, "nb_col": 1}, "name": "convolution2d_61", "class_name": "Convolution2D", "inbound_nodes": [[["mixed6", 0, 0]]]}, {"config": {"dim_ordering": "tf", "nb_row": 7, "name": "convolution2d_64", "W_constraint": null, "init": "glorot_uniform", "subsample": [1, 1], "b_regularizer": null, "nb_filter": 192, "border_mode": "same", "b_constraint": null, "activation": "relu", "activity_regularizer": null, "W_regularizer": null, "bias": true, "trainable": true, "nb_col": 1}, "name": "convolution2d_64", "class_name": "Convolution2D", "inbound_nodes": [[["batchnormalization_63", 0, 0]]]}, {"config": {"dim_ordering": "tf", "nb_row": 1, "name": "convolution2d_69", "W_constraint": null, "init": "glorot_uniform", "subsample": [1, 1], "b_regularizer": null, "nb_filter": 192, "border_mode": "same", "b_constraint": null, "activation": "relu", "activity_regularizer": null, "W_regularizer": null, "bias": true, "trainable": true, "nb_col": 7}, "name": "convolution2d_69", "class_name": "Convolution2D", "inbound_nodes": [[["batchnormalization_68", 0, 0]]]}, {"config": {"dim_ordering": "tf", "nb_row": 1, "name": "convolution2d_70", "W_constraint": null, "init": "glorot_uniform", "subsample": [1, 1], "b_regularizer": null, "nb_filter": 192, "border_mode": "same", "b_constraint": null, "activation": "relu", "activity_regularizer": null, "W_regularizer": null, "bias": true, "trainable": true, "nb_col": 1}, "name": "convolution2d_70", "class_name": "Convolution2D", "inbound_nodes": [[["averagepooling2d_7", 0, 0]]]}, {"config": {"momentum": 0.99, "beta_regularizer": null, "epsilon": 1e-05, "name": "batchnormalization_61", "mode": 0, "trainable": true, "gamma_regularizer": null, "axis": 3}, "name": "batchnormalization_61", "class_name": "BatchNormalization", "inbound_nodes": [[["convolution2d_61", 0, 0]]]}, {"config": {"momentum": 0.99, "beta_regularizer": null, "epsilon": 1e-05, "name": "batchnormalization_64", "mode": 0, "trainable": true, "gamma_regularizer": null, "axis": 3}, "name": "batchnormalization_64", "class_name": "BatchNormalization", "inbound_nodes": [[["convolution2d_64", 0, 0]]]}, {"config": {"momentum": 0.99, "beta_regularizer": null, "epsilon": 1e-05, "name": "batchnormalization_69", "mode": 0, "trainable": true, "gamma_regularizer": null, "axis": 3}, "name": "batchnormalization_69", "class_name": "BatchNormalization", "inbound_nodes": [[["convolution2d_69", 0, 0]]]}, {"config": {"momentum": 0.99, "beta_regularizer": null, "epsilon": 1e-05, "name": "batchnormalization_70", "mode": 0, "trainable": true, "gamma_regularizer": null, "axis": 3}, "name": "batchnormalization_70", "class_name": "BatchNormalization", "inbound_nodes": [[["convolution2d_70", 0, 0]]]}, {"config": {"dot_axes": -1, "mode": "concat", "name": "mixed7", "mode_type": "raw", "output_shape_type": "raw", "output_shape": null, "concat_axis": 3}, "name": "mixed7", "class_name": "Merge", "inbound_nodes": [[["batchnormalization_61", 0, 0], ["batchnormalization_64", 0, 0], ["batchnormalization_69", 0, 0], ["batchnormalization_70", 0, 0]]]}, {"config": {"dim_ordering": "tf", "nb_row": 1, "name": "convolution2d_73", "W_constraint": null, "init": "glorot_uniform", "subsample": [1, 1], "b_regularizer": null, "nb_filter": 192, "border_mode": "same", "b_constraint": null, "activation": "relu", "activity_regularizer": null, "W_regularizer": null, "bias": true, "trainable": true, "nb_col": 1}, "name": "convolution2d_73", "class_name": "Convolution2D", "inbound_nodes": [[["mixed7", 0, 0]]]}, {"config": {"momentum": 0.99, "beta_regularizer": null, "epsilon": 1e-05, "name": "batchnormalization_73", "mode": 0, "trainable": true, "gamma_regularizer": null, "axis": 3}, "name": "batchnormalization_73", "class_name": "BatchNormalization", "inbound_nodes": [[["convolution2d_73", 0, 0]]]}, {"config": {"dim_ordering": "tf", "nb_row": 1, "name": "convolution2d_74", "W_constraint": null, "init": "glorot_uniform", "subsample": [1, 1], "b_regularizer": null, "nb_filter": 192, "border_mode": "same", "b_constraint": null, "activation": "relu", "activity_regularizer": null, "W_regularizer": null, "bias": true, "trainable": true, "nb_col": 7}, "name": "convolution2d_74", "class_name": "Convolution2D", "inbound_nodes": [[["batchnormalization_73", 0, 0]]]}, {"config": {"momentum": 0.99, "beta_regularizer": null, "epsilon": 1e-05, "name": "batchnormalization_74", "mode": 0, "trainable": true, "gamma_regularizer": null, "axis": 3}, "name": "batchnormalization_74", "class_name": "BatchNormalization", "inbound_nodes": [[["convolution2d_74", 0, 0]]]}, {"config": {"dim_ordering": "tf", "nb_row": 1, "name": "convolution2d_71", "W_constraint": null, "init": "glorot_uniform", "subsample": [1, 1], "b_regularizer": null, "nb_filter": 192, "border_mode": "same", "b_constraint": null, "activation": "relu", "activity_regularizer": null, "W_regularizer": null, "bias": true, "trainable": true, "nb_col": 1}, "name": "convolution2d_71", "class_name": "Convolution2D", "inbound_nodes": [[["mixed7", 0, 0]]]}, {"config": {"dim_ordering": "tf", "nb_row": 7, "name": "convolution2d_75", "W_constraint": null, "init": "glorot_uniform", "subsample": [1, 1], "b_regularizer": null, "nb_filter": 192, "border_mode": "same", "b_constraint": null, "activation": "relu", "activity_regularizer": null, "W_regularizer": null, "bias": true, "trainable": true, "nb_col": 1}, "name": "convolution2d_75", "class_name": "Convolution2D", "inbound_nodes": [[["batchnormalization_74", 0, 0]]]}, {"config": {"momentum": 0.99, "beta_regularizer": null, "epsilon": 1e-05, "name": "batchnormalization_71", "mode": 0, "trainable": true, "gamma_regularizer": null, "axis": 3}, "name": "batchnormalization_71", "class_name": "BatchNormalization", "inbound_nodes": [[["convolution2d_71", 0, 0]]]}, {"config": {"momentum": 0.99, "beta_regularizer": null, "epsilon": 1e-05, "name": "batchnormalization_75", "mode": 0, "trainable": true, "gamma_regularizer": null, "axis": 3}, "name": "batchnormalization_75", "class_name": "BatchNormalization", "inbound_nodes": [[["convolution2d_75", 0, 0]]]}, {"config": {"dim_ordering": "tf", "nb_row": 3, "name": "convolution2d_72", "W_constraint": null, "init": "glorot_uniform", "subsample": [2, 2], "b_regularizer": null, "nb_filter": 320, "border_mode": "valid", "b_constraint": null, "activation": "relu", "activity_regularizer": null, "W_regularizer": null, "bias": true, "trainable": true, "nb_col": 3}, "name": "convolution2d_72", "class_name": "Convolution2D", "inbound_nodes": [[["batchnormalization_71", 0, 0]]]}, {"config": {"dim_ordering": "tf", "nb_row": 3, "name": "convolution2d_76", "W_constraint": null, "init": "glorot_uniform", "subsample": [2, 2], "b_regularizer": null, "nb_filter": 192, "border_mode": "valid", "b_constraint": null, "activation": "relu", "activity_regularizer": null, "W_regularizer": null, "bias": true, "trainable": true, "nb_col": 3}, "name": "convolution2d_76", "class_name": "Convolution2D", "inbound_nodes": [[["batchnormalization_75", 0, 0]]]}, {"config": {"momentum": 0.99, "beta_regularizer": null, "epsilon": 1e-05, "name": "batchnormalization_72", "mode": 0, "trainable": true, "gamma_regularizer": null, "axis": 3}, "name": "batchnormalization_72", "class_name": "BatchNormalization", "inbound_nodes": [[["convolution2d_72", 0, 0]]]}, {"config": {"momentum": 0.99, "beta_regularizer": null, "epsilon": 1e-05, "name": "batchnormalization_76", "mode": 0, "trainable": true, "gamma_regularizer": null, "axis": 3}, "name": "batchnormalization_76", "class_name": "BatchNormalization", "inbound_nodes": [[["convolution2d_76", 0, 0]]]}, {"config": {"pool_size": [3, 3], "border_mode": "valid", "dim_ordering": "tf", "trainable": true, "name": "averagepooling2d_8", "strides": [2, 2]}, "name": "averagepooling2d_8", "class_name": "AveragePooling2D", "inbound_nodes": [[["mixed7", 0, 0]]]}, {"config": {"dot_axes": -1, "mode": "concat", "name": "mixed8", "mode_type": "raw", "output_shape_type": "raw", "output_shape": null, "concat_axis": 3}, "name": "mixed8", "class_name": "Merge", "inbound_nodes": [[["batchnormalization_72", 0, 0], ["batchnormalization_76", 0, 0], ["averagepooling2d_8", 0, 0]]]}, {"config": {"dim_ordering": "tf", "nb_row": 1, "name": "convolution2d_81", "W_constraint": null, "init": "glorot_uniform", "subsample": [1, 1], "b_regularizer": null, "nb_filter": 448, "border_mode": "same", "b_constraint": null, "activation": "relu", "activity_regularizer": null, "W_regularizer": null, "bias": true, "trainable": true, "nb_col": 1}, "name": "convolution2d_81", "class_name": "Convolution2D", "inbound_nodes": [[["mixed8", 0, 0]]]}, {"config": {"momentum": 0.99, "beta_regularizer": null, "epsilon": 1e-05, "name": "batchnormalization_81", "mode": 0, "trainable": true, "gamma_regularizer": null, "axis": 3}, "name": "batchnormalization_81", "class_name": "BatchNormalization", "inbound_nodes": [[["convolution2d_81", 0, 0]]]}, {"config": {"dim_ordering": "tf", "nb_row": 1, "name": "convolution2d_78", "W_constraint": null, "init": "glorot_uniform", "subsample": [1, 1], "b_regularizer": null, "nb_filter": 384, "border_mode": "same", "b_constraint": null, "activation": "relu", "activity_regularizer": null, "W_regularizer": null, "bias": true, "trainable": true, "nb_col": 1}, "name": "convolution2d_78", "class_name": "Convolution2D", "inbound_nodes": [[["mixed8", 0, 0]]]}, {"config": {"dim_ordering": "tf", "nb_row": 3, "name": "convolution2d_82", "W_constraint": null, "init": "glorot_uniform", "subsample": [1, 1], "b_regularizer": null, "nb_filter": 384, "border_mode": "same", "b_constraint": null, "activation": "relu", "activity_regularizer": null, "W_regularizer": null, "bias": true, "trainable": true, "nb_col": 3}, "name": "convolution2d_82", "class_name": "Convolution2D", "inbound_nodes": [[["batchnormalization_81", 0, 0]]]}, {"config": {"momentum": 0.99, "beta_regularizer": null, "epsilon": 1e-05, "name": "batchnormalization_78", "mode": 0, "trainable": true, "gamma_regularizer": null, "axis": 3}, "name": "batchnormalization_78", "class_name": "BatchNormalization", "inbound_nodes": [[["convolution2d_78", 0, 0]]]}, {"config": {"momentum": 0.99, "beta_regularizer": null, "epsilon": 1e-05, "name": "batchnormalization_82", "mode": 0, "trainable": true, "gamma_regularizer": null, "axis": 3}, "name": "batchnormalization_82", "class_name": "BatchNormalization", "inbound_nodes": [[["convolution2d_82", 0, 0]]]}, {"config": {"dim_ordering": "tf", "nb_row": 1, "name": "convolution2d_79", "W_constraint": null, "init": "glorot_uniform", "subsample": [1, 1], "b_regularizer": null, "nb_filter": 384, "border_mode": "same", "b_constraint": null, "activation": "relu", "activity_regularizer": null, "W_regularizer": null, "bias": true, "trainable": true, "nb_col": 3}, "name": "convolution2d_79", "class_name": "Convolution2D", "inbound_nodes": [[["batchnormalization_78", 0, 0]]]}, {"config": {"dim_ordering": "tf", "nb_row": 3, "name": "convolution2d_80", "W_constraint": null, "init": "glorot_uniform", "subsample": [1, 1], "b_regularizer": null, "nb_filter": 384, "border_mode": "same", "b_constraint": null, "activation": "relu", "activity_regularizer": null, "W_regularizer": null, "bias": true, "trainable": true, "nb_col": 1}, "name": "convolution2d_80", "class_name": "Convolution2D", "inbound_nodes": [[["batchnormalization_78", 0, 0]]]}, {"config": {"dim_ordering": "tf", "nb_row": 1, "name": "convolution2d_83", "W_constraint": null, "init": "glorot_uniform", "subsample": [1, 1], "b_regularizer": null, "nb_filter": 384, "border_mode": "same", "b_constraint": null, "activation": "relu", "activity_regularizer": null, "W_regularizer": null, "bias": true, "trainable": true, "nb_col": 3}, "name": "convolution2d_83", "class_name": "Convolution2D", "inbound_nodes": [[["batchnormalization_82", 0, 0]]]}, {"config": {"dim_ordering": "tf", "nb_row": 3, "name": "convolution2d_84", "W_constraint": null, "init": "glorot_uniform", "subsample": [1, 1], "b_regularizer": null, "nb_filter": 384, "border_mode": "same", "b_constraint": null, "activation": "relu", "activity_regularizer": null, "W_regularizer": null, "bias": true, "trainable": true, "nb_col": 1}, "name": "convolution2d_84", "class_name": "Convolution2D", "inbound_nodes": [[["batchnormalization_82", 0, 0]]]}, {"config": {"pool_size": [3, 3], "border_mode": "same", "dim_ordering": "tf", "trainable": true, "name": "averagepooling2d_9", "strides": [1, 1]}, "name": "averagepooling2d_9", "class_name": "AveragePooling2D", "inbound_nodes": [[["mixed8", 0, 0]]]}, {"config": {"dim_ordering": "tf", "nb_row": 1, "name": "convolution2d_77", "W_constraint": null, "init": "glorot_uniform", "subsample": [1, 1], "b_regularizer": null, "nb_filter": 320, "border_mode": "same", "b_constraint": null, "activation": "relu", "activity_regularizer": null, "W_regularizer": null, "bias": true, "trainable": true, "nb_col": 1}, "name": "convolution2d_77", "class_name": "Convolution2D", "inbound_nodes": [[["mixed8", 0, 0]]]}, {"config": {"momentum": 0.99, "beta_regularizer": null, "epsilon": 1e-05, "name": "batchnormalization_79", "mode": 0, "trainable": true, "gamma_regularizer": null, "axis": 3}, "name": "batchnormalization_79", "class_name": "BatchNormalization", "inbound_nodes": [[["convolution2d_79", 0, 0]]]}, {"config": {"momentum": 0.99, "beta_regularizer": null, "epsilon": 1e-05, "name": "batchnormalization_80", "mode": 0, "trainable": true, "gamma_regularizer": null, "axis": 3}, "name": "batchnormalization_80", "class_name": "BatchNormalization", "inbound_nodes": [[["convolution2d_80", 0, 0]]]}, {"config": {"momentum": 0.99, "beta_regularizer": null, "epsilon": 1e-05, "name": "batchnormalization_83", "mode": 0, "trainable": true, "gamma_regularizer": null, "axis": 3}, "name": "batchnormalization_83", "class_name": "BatchNormalization", "inbound_nodes": [[["convolution2d_83", 0, 0]]]}, {"config": {"momentum": 0.99, "beta_regularizer": null, "epsilon": 1e-05, "name": "batchnormalization_84", "mode": 0, "trainable": true, "gamma_regularizer": null, "axis": 3}, "name": "batchnormalization_84", "class_name": "BatchNormalization", "inbound_nodes": [[["convolution2d_84", 0, 0]]]}, {"config": {"dim_ordering": "tf", "nb_row": 1, "name": "convolution2d_85", "W_constraint": null, "init": "glorot_uniform", "subsample": [1, 1], "b_regularizer": null, "nb_filter": 192, "border_mode": "same", "b_constraint": null, "activation": "relu", "activity_regularizer": null, "W_regularizer": null, "bias": true, "trainable": true, "nb_col": 1}, "name": "convolution2d_85", "class_name": "Convolution2D", "inbound_nodes": [[["averagepooling2d_9", 0, 0]]]}, {"config": {"momentum": 0.99, "beta_regularizer": null, "epsilon": 1e-05, "name": "batchnormalization_77", "mode": 0, "trainable": true, "gamma_regularizer": null, "axis": 3}, "name": "batchnormalization_77", "class_name": "BatchNormalization", "inbound_nodes": [[["convolution2d_77", 0, 0]]]}, {"config": {"dot_axes": -1, "mode": "concat", "name": "mixed9_0", "mode_type": "raw", "output_shape_type": "raw", "output_shape": null, "concat_axis": 3}, "name": "mixed9_0", "class_name": "Merge", "inbound_nodes": [[["batchnormalization_79", 0, 0], ["batchnormalization_80", 0, 0]]]}, {"config": {"dot_axes": -1, "mode": "concat", "name": "merge_1", "mode_type": "raw", "output_shape_type": "raw", "output_shape": null, "concat_axis": 3}, "name": "merge_1", "class_name": "Merge", "inbound_nodes": [[["batchnormalization_83", 0, 0], ["batchnormalization_84", 0, 0]]]}, {"config": {"momentum": 0.99, "beta_regularizer": null, "epsilon": 1e-05, "name": "batchnormalization_85", "mode": 0, "trainable": true, "gamma_regularizer": null, "axis": 3}, "name": "batchnormalization_85", "class_name": "BatchNormalization", "inbound_nodes": [[["convolution2d_85", 0, 0]]]}, {"config": {"dot_axes": -1, "mode": "concat", "name": "mixed9", "mode_type": "raw", "output_shape_type": "raw", "output_shape": null, "concat_axis": 3}, "name": "mixed9", "class_name": "Merge", "inbound_nodes": [[["batchnormalization_77", 0, 0], ["mixed9_0", 0, 0], ["merge_1", 0, 0], ["batchnormalization_85", 0, 0]]]}, {"config": {"trainable": true, "dim_ordering": "tf", "name": "globalaveragepooling2d_1"}, "name": "globalaveragepooling2d_1", "class_name": "GlobalAveragePooling2D", "inbound_nodes": [[["mixed1", 0, 0]]]}, {"config": {"trainable": true, "dim_ordering": "tf", "name": "globalaveragepooling2d_2"}, "name": "globalaveragepooling2d_2", "class_name": "GlobalAveragePooling2D", "inbound_nodes": [[["mixed3", 0, 0]]]}, {"config": {"trainable": true, "dim_ordering": "tf", "name": "globalaveragepooling2d_3"}, "name": "globalaveragepooling2d_3", "class_name": "GlobalAveragePooling2D", "inbound_nodes": [[["mixed5", 0, 0]]]}, {"config": {"trainable": true, "dim_ordering": "tf", "name": "globalaveragepooling2d_4"}, "name": "globalaveragepooling2d_4", "class_name": "GlobalAveragePooling2D", "inbound_nodes": [[["mixed7", 0, 0]]]}, {"config": {"trainable": true, "dim_ordering": "tf", "name": "globalaveragepooling2d_5"}, "name": "globalaveragepooling2d_5", "class_name": "GlobalAveragePooling2D", "inbound_nodes": [[["mixed9", 0, 0]]]}, {"config": {"activation": "relu", "name": "dense_1", "b_regularizer": null, "W_constraint": null, "init": "glorot_uniform", "b_constraint": null, "output_dim": 256, "activity_regularizer": null, "W_regularizer": null, "bias": true, "trainable": true, "input_dim": null}, "name": "dense_1", "class_name": "Dense", "inbound_nodes": [[["globalaveragepooling2d_1", 0, 0]]]}, {"config": {"activation": "relu", "name": "dense_2", "b_regularizer": null, "W_constraint": null, "init": "glorot_uniform", "b_constraint": null, "output_dim": 736, "activity_regularizer": null, "W_regularizer": null, "bias": true, "trainable": true, "input_dim": null}, "name": "dense_2", "class_name": "Dense", "inbound_nodes": [[["globalaveragepooling2d_2", 0, 0]]]}, {"config": {"activation": "relu", "name": "dense_3", "b_regularizer": null, "W_constraint": null, "init": "glorot_uniform", "b_constraint": null, "output_dim": 768, "activity_regularizer": null, "W_regularizer": null, "bias": true, "trainable": true, "input_dim": null}, "name": "dense_3", "class_name": "Dense", "inbound_nodes": [[["globalaveragepooling2d_3", 0, 0]]]}, {"config": {"activation": "relu", "name": "dense_4", "b_regularizer": null, "W_constraint": null, "init": "glorot_uniform", "b_constraint": null, "output_dim": 768, "activity_regularizer": null, "W_regularizer": null, "bias": true, "trainable": true, "input_dim": null}, "name": "dense_4", "class_name": "Dense", "inbound_nodes": [[["globalaveragepooling2d_4", 0, 0]]]}, {"config": {"activation": "relu", "name": "dense_5", "b_regularizer": null, "W_constraint": null, "init": "glorot_uniform", "b_constraint": null, "output_dim": 2048, "activity_regularizer": null, "W_regularizer": null, "bias": true, "trainable": true, "input_dim": null}, "name": "dense_5", "class_name": "Dense", "inbound_nodes": [[["globalaveragepooling2d_5", 0, 0]]]}, {"config": {"dot_axes": -1, "mode": "concat", "name": "merge_3", "mode_type": "raw", "output_shape_type": "raw", "output_shape": null, "concat_axis": -1}, "name": "merge_3", "class_name": "Merge", "inbound_nodes": [[["dense_1", 0, 0], ["dense_2", 0, 0], ["dense_3", 0, 0], ["dense_4", 0, 0], ["dense_5", 0, 0]]]}, {"config": {"activation": "relu", "name": "dense_6", "b_regularizer": null, "W_constraint": null, "init": "glorot_uniform", "b_constraint": null, "output_dim": 1024, "activity_regularizer": null, "W_regularizer": null, "bias": true, "trainable": true, "input_dim": null}, "name": "dense_6", "class_name": "Dense", "inbound_nodes": [[["merge_3", 0, 0]]]}, {"config": {"trainable": true, "p": 0.5, "name": "dropout_1"}, "name": "dropout_1", "class_name": "Dropout", "inbound_nodes": [[["dense_6", 0, 0]]]}, {"config": {"activation": "relu", "name": "dense_7", "b_regularizer": null, "W_constraint": null, "init": "glorot_uniform", "b_constraint": null, "output_dim": 512, "activity_regularizer": null, "W_regularizer": null, "bias": true, "trainable": true, "input_dim": null}, "name": "dense_7", "class_name": "Dense", "inbound_nodes": [[["dropout_1", 0, 0]]]}, {"config": {"activation": "softmax", "name": "dense_8", "b_regularizer": null, "W_constraint": null, "init": "glorot_uniform", "b_constraint": null, "output_dim": 10, "activity_regularizer": null, "W_regularizer": null, "bias": true, "trainable": true, "input_dim": null}, "name": "dense_8", "class_name": "Dense", "inbound_nodes": [[["dense_7", 0, 0]]]}], "output_layers": [["dense_8", 0, 0]]}, "class_name": "Model"}